DNN_model.pt (torch, 40995 bytes, 8 tensors)

fc_input.weight f4 [64, 16]
000000 2c 9b 50 3e f2 91 09 c0 2c b8 09 bf e4 3f 7e 3f
       0.20371693 -2.1495328 -0.5379665 0.9931624
000010 cb d2 cc bd 31 36 88 bb f2 2a 95 be ba 4a 78 bc
       -0.10001143 -0.0041568507 -0.29134327 -0.015154535
000020 05 b6 e2 bc fe a3 80 bd a9 e9 3f 3e 2f eb 35 be
       -0.027674684 -0.06281279 0.18741478 -0.17765497
000030 f6 bf 79 be 64 1a f8 3d cd 3a a8 3e 70 5c 98 3e
       -0.24389634 0.121144086 0.3285736 0.29758024
000040 7a 12 8b bb c5 69 e0 bd 99 95 88 ba 53 52 59 bb
       -0.004244146 -0.10957674 -0.001042056 -0.0033160641
000050 09 1c 8a 08 8e 00 05 b6 49 4c 6d b6 1d ca 70 b8
       8.312164e-34 -1.9818867e-06 -3.5360156e-06 -5.740869e-05
000060 72 a0 99 b2 a6 36 b1 bd 5e a8 00 be 78 36 e3 36
       -1.7884506e-08 -0.086530015 -0.12564227 6.771468e-06
000070 78 63 13 3a b6 a9 32 39 c3 e6 ff 37 eb e5 c0 ac
       0.0005622427 0.00017038625 3.0505826e-05 -5.4824942e-12
000080 92 9d 6a be 20 98 07 3c 4b 48 a1 be c4 67 36 bf
       -0.22911671 0.0082760155 -0.31500468 -0.71252084
000090 53 67 e9 3e 90 d7 cf 3e 59 3b 09 40 d3 b6 2a be
       0.45586643 0.4059415 2.1442473 -0.16671304
0000a0 b1 d5 4f bf e6 53 45 bd b9 37 85 3e 8a 66 26 c0
       -0.8118544 -0.048175715 0.26019076 -2.6000085
0000b0 c4 bb 93 3e 3e cf 15 3e d4 f3 32 bf 29 0a 09 bf
       0.2885419 0.14629838 -0.699033 -0.5353113
0000c0 8a a4 35 09 d5 a2 65 bb af f9 cc b2 c5 d7 5f b2
       2.1864448e-33 -0.0035039682 -2.3862269e-08 -1.3029369e-08
0000d0 27 5c 00 80 6b 22 05 00 4a ae 9c a2 0e c4 1a 93
       -3.3058e-41 4.71524e-40 -4.246842e-18 -1.9534195e-27
0000e0 1d 7e 02 00 38 02 c6 bd ba 4b 0b bc 83 cb 86 1c
       2.28912e-40 -0.09668392 -0.008501941 8.919983e-22
0000f0 82 9d 00 80 6e af 01 80 67 66 86 83 7d 75 00 80
       -5.6503e-41 -1.54768e-40 -7.899323e-37 -4.2147e-41
000100 f2 7d aa 3d e8 0e 01 3f 31 65 e2 bd 25 5d 12 bf
       0.083248034 0.5041337 -0.11054457 -0.5717338
000110 c4 a6 ee bd 3a 66 26 be 0e f8 f1 bd 02 9c 7d 3c
       -0.11652902 -0.16249934 -0.11814891 0.01547909
000120 fb c9 28 be 0c 90 89 bf 06 d7 89 3e d0 67 51 3f
       -0.164833 -1.0747085 0.26921862 0.8179903
000130 a0 b1 bd bd d7 fb 47 3e 30 18 a2 be 3a dc 96 be
       -0.09262395 0.19529663 -0.3165908 -0.29464895
000140 7b 2a 0b bf 8d dc 56 bb 02 b2 16 bd 60 a9 0c 3f
       -0.54361695 -0.0032785267 -0.036790855 0.54945946
000150 ca 8a 39 3e 8c af ad 3e ee 86 ea be f6 5f ba be
       0.1811935 0.33922994 -0.45806068 -0.36401337
000160 3f e0 9a 3d da 13 02 be 9d 7e 75 bd e0 bf ed 3f
       0.07562303 -0.12702885 -0.0599352 1.8574181
000170 06 e5 0c bf 40 58 c5 bf e8 ea 49 3f 37 5a b1 bf
       -0.5503696 -1.5417557 0.78874063 -1.3855656
000180 0e a1 17 be 94 81 60 be 52 92 c1 bd 36 75 08 bf
       -0.14807531 -0.2192443 -0.094517365 -0.5330385
000190 f6 8a 04 3d d9 2c 13 3f 7b ce 29 3f da cb cd 3e
       0.032359086 0.5749031 0.6633069 0.4019459
0001a0 56 15 a5 bd 1d 59 80 be b3 d0 49 3e 55 c8 06 bf
       -0.0806071 -0.25067988 0.19708519 -0.5264943
0001b0 23 4b 78 3e f8 33 b5 3e c3 9a 42 3e 95 c4 66 be
       0.24247412 0.35391212 0.1900435 -0.22535928
0001c0 b2 4b 06 00 9c 1f 75 aa 57 00 02 00 38 31 02 80
       5.78167e-40 -2.1771338e-13 1.83793e-40 -2.01327e-40
0001d0 59 61 02 00 d3 db 00 80 54 68 02 80 58 b5 01 80
       2.18593e-40 -7.8858e-41 -2.21097e-40 -1.5689e-40
0001e0 be 9a 02 80 6d b3 3b b9 75 32 82 ae 71 ac 02 00
       -2.39182e-40 -0.00017900551 -5.9206785e-11 2.45531e-40
0001f0 aa 04 04 80 10 7e 05 80 6c ff 01 00 76 bb 02 00
       -3.69015e-40 -5.044e-40 1.83464e-40 2.5092e-40
000200 12 89 03 00 e3 d0 04 00 40 61 02 00 6e e6 01 00
       3.24678e-40 4.42276e-40 2.18558e-40 1.74498e-40
000210 bd 5d 05 80 1b 07 04 80 b2 4b 02 80 d7 30 01 00
       -4.92804e-40 -3.69891e-40 -2.10825e-40 1.09356e-40
000220 a2 c8 00 80 f5 dd 07 96 1e 09 07 00 a9 de 03 00
       -7.1973e-41 -1.097525e-25 6.46119e-40 3.55382e-40
000230 ab a1 02 80 d8 6b 03 80 8c 31 00 80 c3 b4 01 00
       -2.41667e-40 -3.14194e-40 -1.7774e-41 1.5668e-40
000240 ab 7e 54 bd 15 a9 7c bd 4f f9 0c 3d ad 6e 5a bf
       -0.051878612 -0.061684687 0.034417447 -0.8532513
000250 ee ba e8 bd 00 96 f0 bf 5a d6 38 3f 82 71 71 3f
       -0.11363779 -1.8795776 0.72202075 0.94313824
000260 db 73 29 be 0c 85 30 3c f6 a3 7a bb fe f3 1a c0
       -0.16548102 0.010773908 -0.00382447 -2.421142
000270 ab 53 0f 3f cf da 95 3d 66 c9 ed be 41 70 dc be
       0.5598704 0.07317125 -0.46442717 -0.43054393
000280 63 35 d2 be 8e da f0 bd bd 3b bd be f3 98 08 3f
       -0.41056356 -0.11760436 -0.3695964 0.5335838
000290 a7 55 f5 be 2e e7 51 3e 55 63 13 c0 2b 13 fc be
       -0.4791691 0.20498344 -2.3029377 -0.49233374
0002a0 33 c1 29 bd fc ee 80 be 7f cc f4 3e a2 48 98 3e
       -0.041444015 -0.2518233 0.47812268 0.29742914
0002b0 50 ed 2a 3f 3e b8 75 bf 31 89 bd 3e 9f fb ea 3e
       0.6676836 -0.95984256 0.3701873 0.45895097
0002c0 c4 5b c5 35 b8 97 07 ba 9f 7b 05 35 c8 8d 0d 35
       1.4704351e-06 -0.0005172449 4.9726253e-07 5.273291e-07
0002d0 50 d5 00 00 63 70 cf 3a b5 7a d5 1d 20 3a 08 80
       7.6522e-41 0.001582634 5.6507507e-21 -7.55535e-40
0002e0 b6 27 b7 32 c7 20 26 bc fe d1 67 bb 5c b9 bd 2f
       2.1322062e-08 -0.010139651 -0.0035372968 3.4510605e-10
0002f0 aa 60 57 b4 8d 9a 98 b4 7a c8 ea b9 47 3d 80 31
       -2.0058602e-07 -2.8424657e-07 -0.00044781325 3.7322567e-09
000300 ae 05 5a 90 96 e3 c8 ba 99 78 4d 2e e4 25 64 b2
       -4.2997295e-29 -0.0015326615 4.6718716e-11 -1.3279962e-08
000310 f6 e8 04 80 12 49 04 1a 08 bc e9 9f 99 c5 00 00
       -4.50913e-40 2.7355986e-23 -9.899041e-20 7.0885e-41
000320 e4 ae 03 00 57 38 62 bd b3 5e 14 bc 9e 1a 8e 89
       3.38245e-40 -0.05522951 -0.009055781 -3.4210287e-33
000330 77 7e 03 ae c2 b9 e5 9d 6e 0e 29 99 7c a8 02 00
       -2.9898275e-11 -6.0807864e-21 -8.740009e-24 2.44112e-40
000340 14 86 5c bf 1c 54 c7 ba 32 bb bc 3e 3e a5 e1 3e
       -0.86142087 -0.0015207562 0.3686157 0.44071382
000350 9d 85 a9 3d 51 a6 92 3e 4c 0f b0 bf 80 8a 93 bf
       0.08277438 0.28642514 -1.3754668 -1.1526642
000360 9c aa 0f be 80 a6 2c bd 49 04 ee 3c f8 ac 24 40
       -0.14029926 -0.042150974 0.029054778 2.5730572
000370 56 9f 93 3e 5c 81 df bb 04 40 af 3e bd 0a db 3f
       0.288325 -0.0068208408 0.34228528 1.7112652
000380 30 e4 8c 3e 8a cb 53 3e 97 e8 11 bf 96 bd ab bd
       0.27517843 0.20683113 -0.5699553 -0.0838577
000390 01 7b 1d 3e de 9e 29 be f8 4d 58 bf f5 0f 11 bf
       0.15378954 -0.1656451 -0.8449397 -0.56664973
0003a0 3b 57 20 3e 0a 55 8c bf 77 97 45 3f 21 30 c1 3e
       0.15658276 -1.0963452 0.7718424 0.37732032
0003b0 e0 41 23 be 74 85 16 3f 14 5d ce be 38 55 e7 bd
       -0.15943098 0.58797383 -0.40305388 -0.11295551
0003c0 35 35 03 80 d9 e0 01 00 39 d7 04 00 5b 42 00 00
       -2.94594e-40 1.72496e-40 4.4455e-40 2.3804e-41
0003d0 29 12 05 80 6d a9 06 00 05 96 02 00 f5 fe 05 80
       -4.65692e-40 6.11791e-40 2.37488e-40 -5.50639e-40
0003e0 fc c5 00 80 91 61 01 90 1c 4d 02 00 bf e6 02 80
       -7.1023e-41 -2.5515927e-29 2.11333e-40 -2.66447e-40
0003f0 10 91 01 00 d9 04 06 80 41 a7 06 80 ea 70 02 00
       1.43874e-40 -5.52752e-40 -6.11012e-40 2.24177e-40

fc_input.bias f4 [64]
000000 04 0a 13 3e 77 a1 a3 bb 1e 23 72 bf 39 da 4b ae
       0.1435929 -0.0049936133 -0.94584835 -4.6350677e-11
000010 fc 7f ed be ba eb 1b 3e 5d 33 63 be 77 6a 02 80
       -0.46386707 0.15226641 -0.22187562 -2.21863e-40
000020 d0 1e 00 80 ce 85 e3 3e f3 45 f5 be 2c 0b b5 34
       -1.1053e-41 0.44438022 -0.4790493 3.3722006e-07
000030 3a 80 7f ad a6 d5 f1 be 98 22 ec bc c9 99 06 00
       -1.4523544e-11 -0.47233313 -0.02882509 6.0618e-40
000040 29 15 2c b7 3c 41 16 be 3c 95 8f b9 d0 17 02 80
       -1.0256926e-05 -0.14673322 -0.00027386274 -1.92213e-40
000050 be aa 5b 9b 5f 18 04 80 b2 ad 04 00 dc b4 99 c0
       -1.8170425e-22 -3.76085e-40 4.29652e-40 -4.8033276
000060 46 33 01 00 bd 85 f2 3d 73 c1 80 18 68 27 00 a5
       1.10229e-40 0.11841915 3.328256e-24 -1.1115582e-16
000070 74 b2 a3 bc 13 54 50 bf 30 2e b4 b5 18 46 b4 35
       -0.019982554 -0.8137829 -1.3424487e-06 1.3431445e-06
000080 2d 03 00 00 17 98 d9 ac bb f6 07 bf 96 37 08 00
       1.139e-42 -6.1843963e-12 -0.53110856 7.54624e-40
000090 c2 00 91 b1 33 57 50 bc f8 ec 21 bf d4 54 b7 2f
       -4.2201416e-09 -0.012716102 -0.6325221 3.334778e-10
0000a0 f8 27 0a bc 2b 4c ad 3e 16 bd 04 00 e8 a6 31 bc
       -0.008432381 0.33847174 4.35173e-40 -0.010843016
0000b0 44 df d4 bd 4b 9d 07 3e b3 0a 05 80 52 ae 18 91
       -0.10394147 0.13243596 -4.63016e-40 -1.2044402e-28
0000c0 15 29 8d 3d f7 36 0a b3 59 44 7c bd ad c7 04 00
       0.068926014 -3.218062e-08 -0.06158862 4.38972e-40
0000d0 8e 0c aa a3 04 eb 65 bf 8d 75 3b bf 2a 52 02 80
       -1.8436754e-17 -0.8981173 -0.73226243 -2.13146e-40
0000e0 49 b3 02 00 ba 3b ae ba 71 2e 01 80 55 65 27 3f
       2.47986e-40 -0.0013292946 -1.08496e-40 0.65388995
0000f0 ec 63 71 bf 27 33 05 00 90 3c 04 00 89 7a 8d bf
       -0.94293094 4.77527e-40 3.89068e-40 -1.105302

hidden_layers.0.weight f4 [64, 64]
000000 a5 13 04 80 13 11 00 00 09 97 ff a5 a5 27 02 00
       -3.74389e-40 6.125e-42 -4.4337794e-16 1.97893e-40
000010 d2 84 63 a9 3f 29 ab a4 c5 fc 71 97 49 37 b7 82
       -5.051933e-14 -7.42293e-17 -7.819034e-25 -2.6921165e-37
000020 78 92 06 80 8b 24 16 a4 09 6a e6 ab fe a9 06 00
       -6.03556e-40 -3.2557018e-17 -1.6371914e-12 6.11995e-40
000030 d1 2d 03 00 f7 66 aa b0 72 7d b6 b2 6a e3 01 00
       2.91942e-40 -1.2398392e-09 -2.1244634e-08 1.73416e-40
000040 e6 a8 00 00 ea a5 52 9a 65 d0 05 80 e0 33 03 80
       6.059e-41 -4.3561006e-23 -5.33935e-40 -2.94116e-40
000050 38 14 00 00 c0 4c 00 00 f9 f4 00 00 9e f0 b9 a8
       7.253e-42 2.7533e-41 8.788e-41 -2.0643477e-14
000060 b9 85 01 00 00 10 6c a0 5a 70 00 80 fa 2d ae 81
       1.39806e-40 -1.9995272e-19 -4.0304e-41 -6.398348e-38
000070 a3 70 02 80 33 fb 9f 84 04 d7 93 80 10 94 06 80
       -2.24077e-40 -3.761141e-36 -1.3576951e-38 -6.04128e-40
000080 c0 83 02 80 48 29 01 00 78 7f 00 80 f4 6b 01 80
       -2.30934e-40 1.06644e-40 -4.5727e-41 -1.30562e-40
000090 ab 28 05 00 28 35 04 00 b1 ee 6a 02 c8 07 00 00
       4.73766e-40 3.86411e-40 1.7260106e-37 2.791e-42
0000a0 90 5c 6e b1 19 b0 25 b3 0b 79 01 80 b6 75 01 80
       -3.4686174e-09 -3.8577216e-08 -1.35258e-40 -1.34062e-40
0000b0 bc 18 89 a7 be 03 01 00 8e af 00 00 e7 56 02 80
       -3.8051956e-15 9.3178e-41 6.2977e-41 -2.14846e-40
0000c0 9b 7c 06 00 64 f4 04 00 79 13 00 80 fc 1e 00 00
       5.95713e-40 4.55013e-40 -6.985e-42 1.1115e-41
0000d0 e3 30 08 80 59 12 06 00 03 09 00 00 54 01 01 80
       -7.52221e-40 5.57595e-40 3.233e-42 -9.2312e-41
0000e0 60 fe 00 00 1d ff 03 80 e5 f3 03 00 2e 64 01 00
       9.1253e-41 -3.67024e-40 3.63e-40 1.27773e-40
0000f0 1f 50 8c 0d d0 52 04 80 ed 61 02 80 46 45 be 0d
       8.647455e-31 -3.9705e-40 -2.188e-40 1.1726331e-30
000100 89 4b 44 3a e8 6f 4f 00 45 95 80 bc c3 dd 07 80
       0.0007488062 7.295149e-39 -0.015696177 -7.22402e-40
000110 15 79 22 bb 76 b4 b0 bb cc 1e 10 3c c2 04 07 80
       -0.0024791409 -0.0053926064 0.008796405 -6.44555e-40
000120 2a f4 c1 b1 cc d0 9b ba 54 9a 5f bc 1e 0f f9 1c
       -5.6447975e-09 -0.0011887788 -0.013647635 1.6481346e-21
000130 ae 1b 3c 00 de c7 12 bc 50 6e 91 b9 2c d8 01 80
       5.52006e-39 -0.008958785 -0.00027738744 -1.69383e-40
000140 18 7d 6e 00 68 9c 31 b8 a5 ba b1 b8 13 5f 00 00
       1.014678e-38 -4.2345753e-05 -8.474783e-05 3.4106e-41
000150 14 ce 00 80 9c 19 01 00 0f 09 00 80 3e 98 f7 ba
       -7.3927e-41 1.01022e-40 -3.25e-42 -0.0018889976
000160 b4 c5 06 00 5c 3c 1e ba b9 93 03 80 51 89 00 80
       6.21935e-40 -0.0006036216 -3.285e-40 -4.926e-41
000170 1f 4c 03 00 13 0a 24 bb b6 16 2c b9 2c cb 00 00
       3.02814e-40 -0.0025030419 -0.00016411659 7.2884e-41
000180 b7 39 00 00 cc 90 21 2a a1 ff a3 ba dd a7 01 00
       2.0704e-41 1.4349909e-13 -0.0012512096 1.52053e-40
000190 44 88 59 80 0e 2d 07 00 b1 3b 79 bc 68 6f 02 80
       -8.222242e-39 6.59011e-40 -0.015211985 -2.23636e-40
0001a0 95 e4 0e a8 69 e9 1c bd 38 80 00 00 28 ec ee 0e
       -7.932149e-15 -0.038308535 4.5996e-41 5.889894e-30
0001b0 d2 69 e7 ba af 12 39 b8 15 24 01 80 bc a9 9e 81
       -0.0017655438 -4.4124838e-05 -1.04779e-40 -5.828359e-38
0001c0 98 fd 7d 20 9b 57 03 00 38 d6 3f 03 f6 a9 02 00
       2.1513841e-19 3.06933e-40 5.6375766e-37 2.44641e-40
0001d0 09 ad 06 80 30 af d1 b9 07 5d e5 b8 d7 33 02 00
       -6.13086e-40 -0.0003999411 -0.000109368986 2.02268e-40
0001e0 a5 dd 04 00 3b 76 00 00 04 6f 01 00 4a 23 f6 27
       4.46853e-40 4.2413e-41 1.3166e-40 6.8316976e-15
0001f0 76 52 25 ba c8 ca cd b2 ba 5b 92 2f f3 7d 8a 38
       -0.0006306538 -2.3957355e-08 2.662242e-10 6.603813e-05
000200 f1 bb 60 af 0a 4f 08 00 e8 5a 03 b9 69 4e 00 00
       -2.0439452e-10 7.63038e-40 -0.00012526999 2.8128e-41
000210 2a 6c 04 b7 8e 3c d4 b9 f9 d0 ae af 12 dd 38 ae
       -7.892997e-06 -0.00040480908 -3.17989e-10 -4.2033106e-11
000220 df e3 06 00 c0 93 04 b8 3c 7f 4f bb 19 2e 01 00
       6.32758e-40 -3.1608855e-05 -0.003166153 1.08372e-40
000230 40 67 a4 80 71 68 db bc 21 05 ad ba 70 1c 00 00
       -1.509806e-38 -0.0267832 -0.0013200381 1.0201e-41
000240 85 74 01 80 fe 9d 02 b0 f1 4f 7a ac e9 4d 05 80
       -1.33635e-40 -4.7518245e-10 -3.5571513e-12 -4.87126e-40
000250 27 9a 03 80 83 a0 03 80 d9 30 01 80 29 e0 73 bb
       -3.30806e-40 -3.33087e-40 -1.09359e-40 -0.0037212467
000260 93 84 00 00 ea ef 0c ba 94 76 04 80 76 41 07 00
       4.7559e-41 -0.0005376326 -4.0988e-40 6.66331e-40
000270 b6 1c 30 82 82 74 4f 39 c8 fb af b6 8f 05 02 80
       -1.2938677e-37 0.00019784461 -5.2447176e-06 -1.85665e-40
000280 7f 5f 00 00 8d 6e 04 00 ab c9 60 b9 d6 2e 02 00
       3.4258e-41 4.07e-40 -0.00021437432 2.00473e-40
000290 da 01 02 80 f6 b4 03 00 6e e5 97 bb af 1c 05 00
       -1.84335e-40 3.40423e-40 -0.0046355044 4.69467e-40
0002a0 7a b4 00 00 67 65 91 bb 9c 32 01 00 af 6e 02 00
       6.4743e-41 -0.004437137 1.09991e-40 2.23377e-40
0002b0 85 87 ff b9 6c d9 04 a6 d4 60 27 2c 9d d7 01 00
       -0.0004873836 -4.609136e-16 2.3785878e-12 1.69183e-40
0002c0 4c 55 76 a5 65 8d 19 80 32 53 02 00 a1 40 01 80
       -2.1365998e-16 -2.34661e-39 2.13516e-40 -1.1502e-40
0002d0 e9 15 2e 02 dc dc 07 bc 24 81 aa b8 c0 1e 04 00
       1.2789789e-37 -0.008292403 -8.130286e-05 3.78373e-40
0002e0 e2 f4 03 80 93 9a 01 80 50 47 02 00 c6 8d 22 b1
       -3.63354e-40 -1.47286e-40 2.09253e-40 -2.3654692e-09
0002f0 bb b3 2a bb 8a f1 79 30 5b 83 a5 38 43 e4 fc b4
       -0.002604707 9.092892e-10 7.89228e-05 -4.710474e-07
000300 90 08 ed bc 51 65 9d 08 9e bc 76 bd 1e 4f 06 80
       -0.028934747 9.472913e-34 -0.060238473 -5.79395e-40
000310 91 77 9b bc 6d 8e 43 bd 02 ae 17 bc c6 63 05 80
       -0.018977912 -0.04774325 -0.009257795 -4.9497e-40
000320 10 a6 07 80 c7 56 8d bc 4b ee 4d bd 2a 85 05 00
       -7.0242e-40 -0.017253293 -0.050276082 5.06948e-40
000330 ef a9 01 00 2d 21 17 be ab 6c 89 3b 1d d2 02 00
       1.52796e-40 -0.1475875 0.0041938624 2.59045e-40
000340 7b 09 02 00 ae a0 b2 bc e2 6a 1d 24 39 dd 01 00
       1.87072e-40 -0.021805134 3.413448e-17 1.71195e-40
000350 a0 b6 03 00 84 5f 02 80 cf a0 00 80 d1 54 2c bc
       3.4102e-40 -2.17936e-40 -5.7687e-41 -0.010518269
000360 16 1d 00 80 be 5e 3b bb 99 12 01 80 de bb 02 80
       -1.0434e-41 -0.0028590406 -9.8507e-41 -2.51065e-40
000370 93 78 18 80 12 b1 6f 3d a4 f1 34 00 25 e3 9a b9
       -2.247306e-39 0.058518477 4.86213e-39 -0.00029542405
000380 e3 e8 02 80 1f 1a 06 00 65 54 63 bb 12 d0 04 00
       -2.67215e-40 5.60383e-40 -0.0034687754 4.41984e-40
000390 25 bd a6 19 61 18 8a 98 e5 d2 0a bd 9b cd 01 00
       1.7240393e-23 -3.569678e-24 -0.03389253 1.65593e-40
0003a0 e5 bd 01 00 6a a4 db bd c2 9d 01 00 3d a9 ae a9
       1.59957e-40 -0.10724719 1.48428e-40 -7.7565104e-14
0003b0 9e e7 e7 bd 6a 93 1a bb 83 d1 00 80 38 2f be 91
       -0.11323474 -0.00235864 -7.5159e-41 -3.0005815e-28
0003c0 ca 09 94 3c 17 f9 be ab 34 72 0a 14 8d 87 04 00
       0.018071074 -1.3569448e-12 6.989742e-27 4.15968e-40
0003d0 df 9f 02 80 4a b7 08 bd a5 73 8d 3b 63 18 02 00
       -2.41022e-40 -0.033377923 0.0043167644 1.92419e-40
0003e0 f2 bf 04 80 91 36 0e 2b 91 f3 03 00 4b 02 e2 3a
       -4.36199e-40 5.052426e-13 3.62882e-40 0.0017243115
0003f0 d6 f7 2d bd 2a 9e 05 80 90 b4 1d 80 e7 62 99 bd
       -0.042472683 -5.15916e-40 -2.728003e-39 -0.07489567

hidden_layers.0.bias f4 [64]
000000 91 26 0f a7 cd 64 9d bb a4 44 8c bb b5 5b c8 bd
       -1.9866143e-15 -0.004803276 -0.0042806435 -0.09783117
000010 71 3c f1 b8 de 2c 47 be f5 e1 8a 3e 4a eb 33 3e
       -0.000115030336 -0.19450709 0.27125517 0.17570224
000020 e6 b6 da b4 09 1c 14 bf 54 cc 84 bd 10 be cb ab
       -4.073874e-07 -0.5785528 -0.06484285 -1.447677e-12
000030 1c ed 17 bf 86 a6 a0 bf 3b 72 ac b8 99 10 1e b8
       -0.59346175 -1.2550819 -8.222876e-05 -3.7685593e-05
000040 b8 c6 b0 be db 37 50 9b 65 cf 2e a9 c7 8d 5d be
       -0.3452661 -1.7223405e-22 -3.8815647e-14 -0.21636115
000050 91 9b 80 8d f4 43 af bb 63 b1 a4 ad 61 d0 21 bf
       -7.92606e-31 -0.005348677 -1.8723417e-11 -0.63208586
000060 64 72 07 b1 ba 5e be 3e 63 2d dc be 48 c0 03 be
       -1.971011e-09 0.37181646 -0.43003377 -0.12866318
000070 43 8b d9 bc 85 2d f9 be e5 82 95 be 75 41 52 3e
       -0.026555663 -0.4866754 -0.29201427 0.20532782
000080 b5 71 30 bf 50 c8 54 be 48 0d 5b be 57 c7 da a8
       -0.68923503 -0.20779538 -0.21391785 -2.4289312e-14
000090 1f 84 56 bc b9 fa 0f b8 a1 e5 8a be 23 18 96 ba
       -0.013093024 -3.432736e-05 -0.27128318 -0.0011451285
0000a0 61 40 90 bd f2 ff 00 bb dc d2 81 ac 0b 0f 7a be
       -0.07043529 -0.0019683805 -3.6898106e-12 -0.24419801
0000b0 32 41 5a bf 5f bc b3 bc 26 91 f3 ab 3c df 95 bb
       -0.8525573 -0.021940408 -1.7306475e-12 -0.0045737308
0000c0 e3 67 b0 bc 7a 3a 70 bf f2 52 6c be 38 c9 81 be
       -0.021533912 -0.9383923 -0.23078516 -0.2534883
0000d0 c2 cc 02 3e 56 03 18 bb d8 d4 e2 3c 2b a5 97 be
       0.12773421 -0.0023195348 0.027689382 -0.296182
0000e0 7a cc fb b0 fa 5d 24 ba db f0 1a b5 1e 86 47 3e
       -1.8320769e-09 -0.0006270107 -5.771996e-07 0.19484755
0000f0 9a 8d 26 a4 5b d5 11 be 90 eb b3 a0 0b 0b 4e be
       -3.6115453e-17 -0.14241545 -3.0479662e-19 -0.201214

hidden_layers.1.weight f4 [64, 64]
000000 59 1f 06 00 ee 34 04 00 a9 27 05 80 55 e8 04 80
       5.62258e-40 3.8633e-40 -4.73405e-40 -4.50687e-40
000010 6e 82 03 00 3c dd 04 80 40 27 b7 bd a8 c8 63 b9
       3.22296e-40 -4.46706e-40 -0.08943033 -0.00021723157
000020 e7 93 07 80 66 4d ae bc bc ed 00 80 d0 94 07 80
       -6.95906e-40 -0.02127714 -8.5283e-41 -6.96232e-40
000030 56 1c 8d 3b 6a ff 88 b4 a7 26 01 00 50 3e 03 80
       0.0043063564 -2.5517812e-07 1.05701e-40 -2.9786e-40
000040 72 bb 03 80 1e 0a 01 80 fc 63 02 80 41 cb 0b ba
       -3.42749e-40 -9.5465e-41 -2.19539e-40 -0.00053327164
000050 8e 07 00 00 04 ec 00 80 29 16 02 80 de 6e 02 00
       2.71e-42 -8.4666e-41 -1.9162e-40 2.23443e-40
000060 de ae 04 00 56 69 10 bc ce ac 49 3b 95 a8 09 00
       4.30073e-40 -0.008814177 0.0030773166 8.86995e-40
000070 46 e8 68 a8 f8 d4 52 80 3a 78 f2 bc 09 c7 f1 bb
       -1.2928953e-14 -7.60691e-39 -0.029598344 -0.007378463
000080 42 70 9d a9 6a b6 47 bc 2b 92 c7 ae 7e 98 01 00
       -6.991674e-14 -0.012189487 -9.075437e-11 1.4654e-40
000090 3c 90 01 00 19 07 02 80 60 3a 04 00 64 6c 04 80
       1.43577e-40 -1.86217e-40 3.88283e-40 -4.06225e-40
0000a0 32 e7 2d b0 83 8e 48 00 4b fe 01 00 66 4c 07 00
       -6.326558e-10 6.663279e-39 1.83059e-40 6.70255e-40
0000b0 c7 e8 79 37 2b c4 00 00 82 fb 05 00 a6 15 02 b5
       1.4895754e-05 7.0372e-41 5.49401e-40 -4.8460277e-07
0000c0 db 60 01 80 3f cd 8b b1 40 b5 9a 0b f3 02 81 bd
       -1.2658e-40 -4.068766e-09 5.9591357e-32 -0.06299391
0000d0 61 29 48 ba 74 d2 04 00 a3 df 6c b1 5b 5e 42 95
       -0.00076355605 4.42838e-40 -3.4469643e-09 -3.925242e-26
0000e0 44 f1 03 80 68 3c 00 80 e2 fb 04 00 1b a5 b1 ba
       -3.62056e-40 -2.167e-41 4.577e-40 -0.0013553234
0000f0 1b 23 6d 80 62 4a 26 05 46 93 01 00 ab 55 af b8
       -1.0022663e-38 7.8189445e-36 1.44667e-40 -8.360607e-05
000100 6c 0c 00 80 2e a9 02 80 81 da 00 80 d0 a4 9c 93
       -4.456e-42 -2.44361e-40 -7.8384e-41 -3.9542454e-27
000110 2b 75 03 80 75 63 00 00 92 4f 95 bd 94 5e b1 b5
       -3.17538e-40 3.5678e-41 -0.072905675 -1.3215054e-06
000120 60 4a 01 00 f3 19 c1 bd 1f 26 fe 07 de 71 00 00
       1.18516e-40 -0.094287775 3.8240078e-34 4.0848e-41
000130 0e a7 9c b5 26 c9 28 b0 c3 92 04 80 b3 ad 02 80
       -1.1671525e-06 -6.1403893e-10 -4.1999e-40 -2.45983e-40
000140 8a 0c d9 3b 35 ce 04 00 4f 00 06 00 52 25 52 20
       0.006623809 4.41315e-40 5.51124e-40 1.780004e-19
000150 5b 9b 02 80 22 d7 00 00 ff b9 00 00 47 c5 02 80
       -2.39402e-40 7.7175e-41 6.6723e-41 -2.54441e-40
000160 15 e1 00 00 80 f4 91 b6 ee 69 49 3b 10 d9 b2 10
       8.0744e-41 -4.3498003e-06 0.0030733305 7.054306e-29
000170 14 f2 18 87 13 5b 32 8d 31 6f 77 bd d8 2c 45 b7
       -1.1506349e-34 -5.496011e-31 -0.060408775 -1.1752556e-05
000180 8c 1c 78 12 5a 36 2a bc 88 f0 1e 12 26 41 01 00
       7.829019e-28 -0.010388935 5.0152487e-28 1.15206e-40
000190 60 9f 00 80 01 ab 01 80 b2 6b 0a 8f 0d ae 05 00
       -5.7173e-41 -1.5318e-40 -6.824667e-30 5.21615e-40
0001a0 04 4a c2 89 e1 22 02 80 be a0 01 80 c4 12 06 80
       -4.6773405e-33 -1.96183e-40 -1.49499e-40 -5.57745e-40
0001b0 4b 17 de ba bf 09 01 80 5c a4 02 00 fe a9 2a 0c
       -0.0016944198 -9.5332e-41 2.42632e-40 1.3147479e-31
0001c0 c3 8f 02 00 a3 79 9a a5 8b 92 02 00 40 60 5a 38
       2.35243e-40 -2.6797166e-16 2.36241e-40 5.206489e-05
0001d0 ac 15 d6 33 89 ec 03 00 0d 54 40 0f 0c 7c f4 89
       9.9690936e-08 3.6036e-40 9.4825185e-30 -5.8857516e-33
0001e0 23 12 00 80 78 fb 00 80 b8 82 14 05 fd 64 36 97
       -6.506e-42 -9.021e-41 6.982936e-36 -5.8934837e-25
0001f0 cf 09 00 00 7f 64 8d 8a 33 fa 03 00 d0 13 79 38
       3.519e-42 -1.3615609e-32 3.65261e-40 5.9384678e-05
000200 65 ba 01 80 17 cb 3c 00 8d 12 02 80 cf 8f 03 00
       -1.58701e-40 5.582985e-39 -1.90326e-40 3.27095e-40
000210 8a 42 00 80 af 51 00 00 96 9a 1f a7 46 1c df b3
       -2.387e-41 2.9303e-41 -2.2149484e-15 -1.03893896e-07
000220 c3 b3 04 00 30 3c df a5 ab 54 02 80 10 b8 03 80
       4.31828e-40 -3.8725118e-16 -2.14044e-40 -3.41536e-40
000230 a9 cb 02 80 a0 55 91 ad 58 ec 3b 00 c9 ce 06 00
       -2.5673e-40 -1.6522617e-11 5.503078e-39 6.25194e-40
000240 f2 64 00 00 c3 af 06 00 1f 33 02 00 12 d8 39 32
       3.6212e-41 6.14064e-40 2.0201e-40 1.0817546e-08
000250 0d 63 05 00 90 89 1f 80 8c 2a 01 80 32 48 04 80
       4.9471e-40 -2.896249e-39 -1.07098e-40 -3.93241e-40
000260 c5 06 03 00 e6 4e 76 b7 3d e7 58 a0 16 24 08 00
       2.77935e-40 -1.4681113e-05 -1.8372422e-19 7.47629e-40
000270 2c 19 01 00 0c 95 00 80 23 35 88 b4 64 e6 a3 b6
       1.00865e-40 -5.3468e-41 -2.5370636e-07 -4.8845995e-06
000280 b9 9b ba 1e c9 e4 02 00 33 6f 4c 2d e5 d4 01 00
       1.9757921e-20 2.65744e-40 1.1620749e-11 1.68208e-40
000290 af 98 04 80 0f 1f 01 00 eb 80 07 00 28 40 1b 32
       -4.22115e-40 1.02977e-40 6.89096e-40 9.036775e-09
0002a0 3e e2 02 00 47 5b 23 80 57 5e 05 00 8b 92 01 80
       2.64831e-40 -3.246987e-39 4.9302e-40 -1.44405e-40
0002b0 8c 27 02 00 47 1f 03 00 65 a5 06 80 bb 42 07 80
       1.97858e-40 2.86727e-40 -6.10345e-40 -6.66787e-40
0002c0 c7 bf 01 00 c5 4f 22 a7 22 01 06 80 17 ec 5e ab
       1.60632e-40 -2.252526e-15 -5.5142e-40 -7.9197884e-13
0002d0 20 97 cd 33 27 3c 06 00 48 ea 10 ac 58 26 e4 ae
       9.573546e-08 5.72592e-40 -2.0593683e-12 -1.0375051e-10
0002e0 62 33 01 00 db e6 42 08 43 e4 02 80 50 2d 64 b4
       1.10268e-40 5.865112e-34 -2.65556e-40 -2.125064e-07
0002f0 b3 18 01 00 64 7f 05 00 a5 ea 00 00 18 49 b5 af
       1.00696e-40 5.04877e-40 8.4175e-41 -3.2975644e-10
000300 3c fc 01 00 e3 f9 01 80 b3 77 67 00 1e a5 68 b6
       1.8232e-40 -1.81478e-40 9.501996e-39 -3.4666805e-06
000310 7b eb 00 00 ed 66 18 16 08 ed 1f be ea 56 b6 bc
       8.4474e-41 1.231094e-25 -0.15617764 -0.02225824
000320 c1 8b 00 00 3f bd 11 be 38 11 d8 94 0f 98 00 00
       5.0134e-41 -0.14232348 -2.1817218e-26 5.4548e-41
000330 d7 93 b3 3d 24 af cc 3c f8 18 02 80 c2 68 14 2e
       0.087684326 0.024985857 -1.92628e-40 3.3744348e-11
000340 f4 8e a1 37 da 15 03 00 c7 e4 05 80 74 b2 13 b9
       1.9259263e-05 2.83345e-40 -5.41247e-40 -0.00014085491
000350 a1 71 01 80 28 e7 00 00 a4 a8 02 80 52 e6 03 80
       -1.32598e-40 8.2923e-41 -2.44168e-40 -3.5813e-40
000360 bf 5f 02 00 8e e7 60 bd 82 50 4a be 9f e6 6c b1
       2.18018e-40 -0.054908328 -0.19757274 -3.4473613e-09
000370 93 69 03 80 d9 d8 34 a0 a0 28 05 be 9a 1e 9f bc
       -3.1338e-40 -1.5318342e-19 -0.13003778 -0.019423772
000380 59 58 0a bc f0 e0 a7 bb 6a f6 ae 3d 6a f3 08 00
       -0.008443915 -0.00512325 0.085430935 8.22004e-40
000390 f1 25 02 80 e0 bd 33 80 a1 ae a2 3c da 9a 46 1c
       -1.97282e-40 -4.751725e-39 0.01985866 6.5712845e-22
0003a0 76 a1 95 11 ca ed 06 00 72 f4 0b 80 40 d5 02 80
       2.3607563e-28 6.36316e-40 -1.097881e-39 -2.6017e-40
0003b0 03 fb 4b bd 68 14 0e 01 57 fa 06 80 1f 10 0e b9
       -0.04979993 2.6095922e-38 -6.40818e-40 -0.00013548181
0003c0 0e f0 06 80 c8 59 1a bd 7d 4e 02 00 76 5a f6 3c
       -6.37128e-40 -0.03768328 2.11827e-40 0.030072432
0003d0 cc 1c 33 bd 2d 9f 02 80 21 d2 51 3b e4 69 01 b7
       -0.043728635 -2.40773e-40 0.0032016116 -7.713654e-06
0003e0 fa 6e 02 80 e3 fe d6 9f 10 e3 ed 0b b9 a3 9a bb
       -2.23482e-40 -9.10542e-20 9.1630725e-32 -0.0047192243
0003f0 81 bb 02 00 c3 60 b0 2f a3 65 00 00 47 78 fc 3d
       2.50935e-40 3.2082967e-10 3.646e-41 0.123276286

hidden_layers.1.bias f4 [64]
000000 f5 05 a3 bd e0 63 53 bc 4e d3 77 b8 97 be 15 be
       -0.079601206 -0.01290223 -5.9086182e-05 -0.14623486
000010 00 d2 40 bb e8 61 24 ac 3f df e8 3e e3 41 34 3f
       -0.0029422045 -2.336015e-12 0.45482823 0.70413035
000020 e9 8f 1d ae 5a a8 02 be 33 a3 b8 af 47 5d 87 bd
       -3.5825485e-11 -0.12759534 -3.3585365e-10 -0.06609588
000030 6e d7 46 b6 9c 50 90 9f 5e a4 e6 bc f0 89 bb bd
       -2.9629696e-06 -6.111973e-20 -0.028154548 -0.09157169
000040 f2 8b 2e bd 17 89 1b 3f 19 16 73 b9 f7 d9 d8 3e
       -0.04261393 0.6075606 -0.00023182518 0.42353794
000050 af a2 ae 3e 52 8a e6 ab cc 9c cd 9a 48 c3 d7 bd
       0.34108493 -1.6380875e-12 -8.503933e-23 -0.10535294
000060 c5 b9 9e be 4a fc 43 ad ca dd f1 bd f5 1e c5 ae
       -0.31001106 -1.1140486e-11 -0.11809881 -8.964022e-11
000070 01 a7 48 bc 65 ff 1e aa 71 cd 02 3e 2f 5e 81 b5
       -0.012246848 -1.4121827e-13 0.12773682 -9.63866e-07
000080 a3 52 81 3e 5c b6 c3 bc 69 28 43 3e 4b 81 19 be
       0.2525836 -0.023890667 0.19058384 -0.14990728
000090 e4 7f b7 b0 95 99 03 3f 18 5c d2 3e b9 57 5e a1
       -1.3351351e-09 0.5140622 0.41085887 -7.5332626e-19
0000a0 a7 f7 b3 bc c8 ce 33 b6 53 63 e9 bc cf 70 fd bb
       -0.021968676 -2.679344e-06 -0.028489744 -0.007734395
0000b0 d3 be 0c a8 10 02 6c bd dd 16 30 bd a2 7c 90 bd
       -7.81294e-15 -0.057619154 -0.042990554 -0.07055022
0000c0 4b d3 13 bc 05 cd 41 b7 bd 91 f7 bd 1a 7b 5f be
       -0.009022544 -1.1551431e-05 -0.12088344 -0.21824303
0000d0 f2 af 9a bd 88 cc 2d 3f 96 57 b5 3e 8d 7a be ae
       -0.0755309 0.67890215 0.35418385 -8.661969e-11
0000e0 a7 ee 90 bd 11 fe b3 be f5 0e e2 3e f7 ea 85 b6
       -0.07076769 -0.35154775 0.44152036 -3.9910624e-06
0000f0 aa e7 da a2 2e 46 7f 98 1f 73 cf b8 db 66 77 be
       -5.9334302e-18 -3.299341e-24 -9.891972e-05 -0.2416033

fc_output.weight f4 [2, 64]
000000 8e 4d e6 3c e6 41 97 3b bc c9 12 ba 2d 09 0e 3d
       0.028113153 0.00461601 -0.0005599519 0.03467672
000010 c7 70 3f bd 1e 05 53 b4 0a af ed 3d 3e e9 66 3d
       -0.046738412 -1.9652768e-07 0.11605652 0.05637478
000020 11 91 9d 34 d1 cb 27 be 72 23 46 bc 61 72 c3 3d
       2.9349079e-07 -0.16386344 -0.012093412 0.095433004
000030 95 3f 0f bb 57 80 d5 b2 8d ff 2a bc 0a d4 2c 3b
       -0.0021857966 -2.4854826e-08 -0.010436905 0.0026371502
000040 7e 1c c5 3b 3a 98 47 3e 4b f8 81 3c ac c0 c5 3d
       0.0060153594 0.19491664 0.015865466 0.0965589
000050 4a b3 30 3e 5d 00 b9 3d d1 41 d6 31 6c 2b c0 bb
       0.17255893 0.090332724 6.235702e-09 -0.0058645513
000060 a8 2e e4 3d b5 f5 8a 3b 7d ef 18 3b 2c 34 93 bb
       0.111417115 0.0042407163 0.0023336106 -0.0044923034
000070 8e 41 5d ba cb 69 ee 35 69 eb 87 3d 6f 01 3a 3c
       -0.00084402494 1.7763172e-06 0.06636698 0.011352881
000080 4e 70 2d be 37 40 c9 bd bb 37 06 3e 0e 5f 9e 3d
       -0.16937372 -0.09826701 0.13107197 0.07732974
000090 a3 74 02 36 e1 9e 38 3e 0e 55 37 3e 27 eb e5 33
       1.94394e-06 0.18029357 0.1790354 1.07064174e-07
0000a0 d3 58 1f 3b a5 a8 24 3c 73 bd 89 bd cc c9 39 3d
       0.0024314418 0.010049974 -0.06725588 0.045358464
0000b0 08 06 d8 37 fd 02 3b bd fb 3a 1f bd 1b 23 73 bd
       2.5752015e-05 -0.045657147 -0.038874608 -0.05935965
0000c0 84 b5 ec 3c 4b d5 6c 3b 98 a0 30 be 6c e5 46 3e
       0.028895147 0.0036137875 -0.17248762 0.19423455
0000d0 16 57 a5 ba cb 55 24 3e bd e9 30 3e 0a db 5e 3b
       -0.0012614455 0.16048352 0.17276664 0.003400507
0000e0 87 c8 87 39 1a a0 06 3e 04 af 36 3d 84 57 94 ba
       0.0002589861 0.13147011 0.0446005 -0.0011317586
0000f0 25 f8 fe 2f c4 f7 00 00 c8 3e 83 3c bf 80 94 bd
       4.6378648e-10 8.8882e-41 0.016021147 -0.07251119
000100 ea 4e e6 bc b6 42 97 bb 6d 77 d0 39 fa 99 0e bd
       -0.028113801 -0.004616107 0.0003976183 -0.034814812
000110 d7 70 3f 3d 0d 85 54 34 90 50 01 be 1e eb 5d be
       0.04673847 1.9792442e-07 -0.12628388 -0.21671721
000120 0e 91 9d b4 50 72 d9 b9 8f 23 46 3c 5e 72 c3 bd
       -2.934907e-07 -0.00041474635 0.012093439 -0.09543298
000130 74 40 0f 3b 13 80 d5 32 8f ff 2a 3c 62 bf 2f bb
       0.0021858485 2.4854705e-08 0.0104369065 -0.0026816954
000140 6e 1d c5 bb 9c a3 69 3b 53 f8 81 bc cd f7 47 be
       -0.006015471 0.0035650497 -0.01586548 -0.19528122
000150 26 1a 52 bd fc fd b8 bd 95 df ec b1 78 2a c0 3b
       -0.05129447 -0.09032819 -6.8939223e-09 0.0058644377
000160 63 2e e4 bd b6 f5 8a bb 53 ee 18 bb 53 8f 81 3b
       -0.1114166 -0.004240717 -0.0023335412 0.003953853
000170 c1 5d 65 3a b1 69 ee b5 61 eb 87 bd 16 1e 38 bc
       0.0008749627 -1.7763142e-06 -0.06636692 -0.011237642
000180 bf c5 5e bd ae fd ad 3d 91 08 d4 bd 0c 5f 9e bd
       -0.054387804 0.08495651 -0.103531964 -0.077329725
000190 7d 74 02 b6 d8 3a cc bd b6 76 01 be 27 eb e5 b3
       -1.9439315e-06 -0.09972161 -0.12642941 -1.07064174e-07
0001a0 30 e4 1e bb 83 a8 24 bc 6d bd 89 3d c4 c9 39 bd
       -0.0024244897 -0.010049942 0.06725583 -0.045358434
0001b0 60 cc d7 b7 f9 02 3b 3d fc 3a 1f 3d f4 22 73 3d
       -2.5725167e-05 0.04565713 0.03887461 0.059359506
0001c0 9e b5 ec bc 60 d5 6c bb 3c a4 30 3e 65 e5 46 be
       -0.028895196 -0.0036137924 0.1725015 -0.19423445
0001d0 c0 57 a5 3a 14 ea 11 be ec 97 ea bd f3 d9 5e bb
       0.0012614653 -0.1424945 -0.11454758 -0.003400442
0001e0 7b bb 87 b9 14 a0 06 be a9 5f 46 be c2 56 94 3a
       -0.0002588889 -0.13147002 -0.19372429 0.001131736
0001f0 25 f8 fe af 48 ee 02 80 90 3e 83 bc d5 80 94 3d
       -4.6378648e-10 -2.6915e-40 -0.016021043 0.07251135

fc_output.bias f4 [2]
000000 bb 1e 27 bf b2 1e 27 3f
       -0.65281266 0.6528121
